.dart_tool/chrome-device/Default/optimization_guide_prediction_model_downloads/5dbd7703-48ad-4a92-8b67-ee69e0c2ddac/model.tflite (tflite, 407748 bytes, 166 tensors)

context_transformer_0/bottleneck_input/norm/add f4 [32]
-0.004345486 -0.101452895 0.13664478 0.029623568 0.14895749 0.25897124 -0.0026751654 0.06542087
-0.16463247 0.016945668 -0.08862739 0.003986099 -0.08385584 0.0581078 0.081854746 0.022541247
-0.031355377 -0.06177243 0.07636937 0.008304288 -0.13012242 -0.06237787 -0.016741121 0.0078368345
-0.056394793 0.07129587 0.044242315 -0.03373897 -0.02913107 -0.029690608 0.024404641 -0.13415088
00000000: 9464 8ebb 89c6 cfbd 9cec 0b3e 20ad f23c
00000010: 5088 183e e197 843e d451 2fbb 61fb 853d
00000020: 6a95 28be a4d1 8a3c 4782 b5bd d29d 823b
00000030: 9cbc abbd 7202 6e3d 76a3 a73d 6ca8 b83c
00000040: 7f6e 00bd 1605 7dbd 8b67 9c3d b50e 083c
00000050: d03e 05be f07f 7fbd ad24 89bc 1166 003c
00000060: 3afe 66bd 9203 923d 6e37 353d e031 0abd
00000070: 48a4 eebc b839 f3bc 3eec c73c d95e 09be

context_transformer_1/bottleneck_input/norm/add f4 [32]
-0.08847762 0.052766636 0.06591977 0.03866284 0.063784376 0.03203569 -0.03054243 0.049595058
-0.08867871 -0.08197872 -0.053343754 -0.045412235 0.0113340225 -0.06284206 -0.014909764 0.02958478
0.12879008 0.022140518 -0.12489395 0.15379572 -0.11660913 -0.28933167 0.26266438 0.17869999
-0.014513174 -0.03873332 0.029304449 0.025421102 -0.03167839 -0.061099708 0.0074811075 0.07527565
00000000: c133 b5bd d421 583d f200 873d ed5c 1e3d
00000010: 62a1 823d db37 033d 1e34 fabc 3024 4b3d
00000020: 2f9d b5bd 76e4 a7bd fb7e 5abd 2e02 3abd
00000030: 56b2 393c 57b3 80bd 1548 74bc c85b f23c
00000040: 8ce1 033e 0860 b53c 66c8 ffbd a07c 1d3e
00000050: c4d0 eebd 4823 94be f27b 863e 21fd 363e
00000060: aac8 6dbc d4a6 1ebd e20f f03c ea3f d03c
00000070: 33c1 01bd b043 7abd 1424 f53b 1f2a 9a3d

mention_transformer_0/bottleneck_input/norm/add f4 [32]
-0.11338483 -0.19102508 -0.2291927 0.025140712 0.13540725 -0.2813911 -0.098772824 0.25341123
-0.27077758 0.13857189 -0.05598192 -0.2314533 0.13345036 0.12896633 -0.15594217 0.23151445
-0.31470925 -0.014661487 -0.024242613 -0.04366902 -0.17185712 0.030518586 -0.08739188 -0.18925399
-0.043843284 0.13439585 0.21681297 -0.042966623 -0.06389497 -0.19256206 0.010561294 0.022517962
00000000: 4e36 e8bd 149c 43be 7eb1 6abe e5f3 cd3c
00000010: 33a8 0a3e 7f12 90be 6849 cabd 1ebf 813e
00000020: 5ca3 8abe cae5 0d3e 4c4d 65bd 1802 6dbe
00000030: 36a7 083e c00f 043e 4eaf 1fbe 2012 6d3e
00000040: 9221 a1be bc36 70bc 7298 c6bc 49de 32bd
00000050: 50fb 2fbe 1d02 fa3c 84fa b2bd cccb 41be
00000060: 0495 33bd 119f 093e 3804 5e3e c5fd 2fbd
00000070: 5edb 82bd fd2e 45be 4709 2d3c 9777 b83c

mention_transformer_1/bottleneck_input/norm/add f4 [32]
-0.06390751 0.0754712 -0.38410717 -0.24524626 -0.14297429 0.3890254 -0.31521043 -0.19085127
0.024846423 0.021113925 0.14253034 0.28513652 0.023211619 -0.075989366 -0.004218243 0.21919963
0.3109536 0.025398389 -0.16088608 0.38377392 0.1029039 -0.17623574 0.006314378 -0.21800077
-0.082628235 -0.076562285 -0.058759354 0.21187787 -0.24524105 -0.62418944 -0.19979924 0.09505679
00000000: f1e1 82bd a590 9a3d b2a9 c4be d621 7bbe
00000010: da67 12be 562e c73e 4363 a1be 846e 43be
00000020: ba8a cb3c 1cf7 ac3c 79f3 113e 6afd 913e
00000030: 4b26 be3c 50a0 9bbd 3039 8abb de75 603e
00000040: 4f35 9f3e 4810 d03c 52bf 24be 047e c43e
00000050: 48bf d23d 2477 34be d8e8 ce3b 983b 5fbe
00000060: fe38 a9bd b0cc 9cbd a6ad 70bd 83f6 583e
00000070: 7820 7bbe e1ca 1fbf 2c98 4cbe 22ad c23d

context_transformer_0/attention/value/add;context_transformer_0/attention/value/einsum/Einsum;context_transformer_0/attention/value/add/ReadVariableOp/resource f4 [32]
0.004606171 -0.056424186 0.04314375 -0.079351634 0.04882904 -0.027430166 0.035404895 0.025414746
-0.062014885 -0.04787422 -0.072229214 -0.0818937 0.033143662 0.04307438 -0.05272496 -0.085105784
0.059505105 -0.00075828127 -0.017719338 0.08968966 -0.07799495 0.026035057 0.061359197 0.039764028
-0.07646101 0.031499427 0.0683972 -0.06712445 0.06465123 0.027247991 -0.0473484 -0.0860857
00000000: 5def 963b 0c1d 67bd 80b7 303d 1c83 a2bd
00000010: f600 483d 3ab5 e0bc b904 113d 9632 d03c
00000020: 5203 7ebd c217 44bd e9ec 93bd e2b7 a7bd
00000030: a6c1 073d c36e 303d 21f6 57bd f14b aebd
00000040: a0bb 733d 65c7 46ba 2528 91bc 36af b73d
00000050: d1bb 9fbd 7947 d53c c853 7b3d 9bdf 223d
00000060: 9797 9cbd 8b05 013d d513 8c3d 8b78 89bd
00000070: dd67 843d 2e37 df3c 65f0 41bd b34d b0bd

context_transformer_0/bottleneck_input/norm/mul f4 [32, 32]
0.074215405 0.03718394 0.013950562 -0.01955121 0.045019317 0.124395914 0.076135494 0.07305321
-0.0837839 -0.060632348 -0.09896091 0.23485897 0.05603681 0.05819095 0.0655396 0.032770146
-0.024258466 -0.13062987 -0.07582744 -0.118743904 -0.019693678 -0.13115619 -0.0348043 -0.14915235
-0.02660302 -0.06235482 0.015772903 0.029599186 0.028737172 0.00232546 0.15129301 0.093262866
0.024348179 0.019710848 -0.031741537 0.05088335 -0.067689665 0.087151475 -0.021119433 -0.08578005
-0.009182381 -0.081203334 -0.031390794 0.038894452 0.058472354 0.103379555 0.27952415 0.08178055
-0.029364925 0.02843948 -0.13020588 0.13366382 0.17960602 0.08188094 0.07528008 -0.036459528
-0.035521135 -0.066799656 0.08092329 0.16976495 0.09707562 -0.11858776 0.094378844 0.06975771
-0.26804492 0.22722554 -0.30158046 -0.12322613 0.31476998 0.13335028 -0.15010616 0.15155669
0.2411303 0.29936305 0.3242833 -0.46566984 -0.22046246 -0.042120747 -0.099247195 0.05895772
0.15771401 0.067514345 -0.30316105 0.31551623 -0.025729988 0.3770932 0.17571147 -0.025394987
0.0849214 -0.17804493 -0.0064389585 -0.26690876 -0.17678005 0.15653095 -0.08179264 0.08271903
0.16007754 0.07462296 0.029274665 -0.23848538 -0.13541338 -0.06694641 0.12538917 0.11291976
0.12516917 -0.12148834 0.0128617175 0.13096438 0.1386888 -0.13396548 -0.09710196 0.09619117
0.018802265 -0.342683 -0.041390352 0.2641333 -0.33249447 -0.08216786 0.08959876 -0.15350269
-0.008772047 0.062415138 -0.110535435 -0.07699876 -0.1169217 0.15071699 0.02591829 -0.16831128
-0.12485876 -0.026476027 0.4638796 0.053245224 -0.067050815 0.035346817 -0.79967064 0.23873857
0.3616388 -0.12958424 -0.47901303 0.043008495 0.13455805 0.017154723 -0.30139655 0.2826118
0.22545265 0.043416258 0.056939635 0.16065069 0.17062943 -0.49251541 -0.061790574 -0.13336802
0.18819314 0.14148942 -0.54461116 0.5907728 -0.19860645 -0.04975096 -0.064141646 0.2866661
0.051224425 0.08086527 0.11703551 -0.1645218 -0.022183405 -0.09337165 -0.010128956 0.16993715
-0.010305143 -0.1631755 0.08948045 -0.017420022 0.03771481 -0.23714694 -0.1620884 -0.04249128
0.109431975 -0.18833897 0.07875675 0.023129184 -0.26653627 0.026257565 -0.06777671 0.145075
-0.024839832 0.15340868 -0.27592587 -0.39220008 -0.09703367 0.28465086 -0.021166831 -0.12305434
-0.22598666 0.31659362 0.24738945 0.21444678 -0.23467888 0.24429822 -0.18587634 0.14429635
0.37618697 -0.1165004 -0.43149075 -0.0053350697 0.24255183 -0.4485294 -0.32513025 0.05949065
0.10346749 0.1654314 -0.030438803 0.2343528 0.29362723 0.13851027 0.1466396 0.29263842
0.124924034 -0.06421035 0.214989 -0.04883399 0.15649052 -0.034035508 -0.05736952 -0.059066862
-0.20097283 -0.44419387 0.05854743 -0.10035552 0.33582962 -0.2858664 -0.14302084 0.74270386
0.1378823 -0.20463066 -0.31063545 0.7222534 0.049854826 0.15745887 0.5021515 -0.38620082
-0.05899953 -0.051760793 0.28230664 0.19597192 0.59925336 -0.13990307 0.08254443 -0.3004434
-0.122701935 -0.34637976 -0.02324542 0.1241115 -0.12751777 -0.18388851 -0.06445582 0.030732172
00000000: 3ffe 973d 304e 183d e690 643c dc29 a0bc
00000010: 2d66 383d 49c3 fe3d edec 9b3d ec9c 953d
00000020: e596 abbd a059 78bd 05ac cabd df7e 703e
00000030: db86 653d a259 6e3d a039 863d fd39 063d
00000040: b1b9 c6bc d6c3 05be 6b4b 9bbd 0130 f3bd
00000050: a354 a1bc cf4d 06be f48e 0ebd 65bb 18be
00000060: 94ee d9bc c567 7fbd 2d36 813c fe79 f23c
00000070: 386a eb3c bf66 183b 8eec 1a3e 9a00 bf3d
00000080: d575 c73c a578 a13c 6a03 02bd 0f6b 503d
00000090: e1a0 8abd 797c b23d a902 adbc 73ad afbd
000000a0: b371 16bc ef4d a6bd a293 00bd ca4f 1f3d
000000b0: b580 6f3d a9b8 d33d ca1d 8f3e 907c a73d
000000c0: b68e f0bc eaf9 e83c b154 05be 2bdf 083e
000000d0: a4ea 373e 32b1 a73d 712c 9a3d 9656 15bd
000000e0: 9c7e 11bd 42ce 88bd 1cbb a53d ddd6 2d3e
000000f0: 95cf c63d 24de f2bd b249 c13d 21dd 8e3d
00000100: 2f3d 89be d0ad 683e c168 9abe fb5d fcbd
00000110: 8829 a13e fa8c 083e 6eb5 19be ad31 1b3e
00000120: ddea 763e 1d46 993e 7608 a63e 476c eebe
00000130: e9c0 61be ce86 2cbd 1d42 cbbd a67d 713d
00000140: c87f 213e f644 8a3d ed37 9bbe 588b a13e
00000150: b2c7 d2bc 5c12 c13e b5ed 333e 2609 d0bc
00000160: 45eb ad3d 6951 36be e6fd d2bb 44a8 88be
00000170: d405 35be a649 203e e682 a7bd 9868 a93d
00000180: 5eeb 233e ecd3 983d 6cd1 ef3c 8335 74be
00000190: cea9 0abe 331b 89bd 0566 003e 7a42 e73d
000001a0: 592c 003e e1ce f8bd f4b9 523c 871b 063e
000001b0: 7004 0e3e 3f2e 09be 64dd c6bd e0ff c43d
000001c0: 3507 9a3c 2574 afbe ee88 29bd 7b3c 873e
000001d0: b73c aabe 9f47 a8bd 8e7f b73d cf2f 1dbe
000001e0: a2b8 0fbc 04a7 7f3d 6760 e2bd 87b1 9dbd
000001f0: a574 efbd 8e55 1a3e 9852 d43c cb59 2cbe
00000200: f3b5 ffbd 41e4 d8bc a081 ed3e aa17 5a3d
00000210: f051 89bd d3c7 103d 37b7 4cbf e277 743e
00000220: b928 b93e bbb1 04be 3241 f5be ad29 303d
00000230: 96c9 093e 1088 8c3c a650 9abe 7eb2 903e
00000240: 0fdd 663e 3fd5 313d 8939 693d 9d81 243e
00000250: 7bb9 2e3e fb2a fcbe 1d18 7dbd a091 08be
00000260: b4b5 403e 9ae2 103e a36b 0bbf e33c 173f
00000270: 7d5f 4bbe aac7 4bbd b25c 83bd e6c5 923e
00000280: b4d0 513d b19c a53d 50b0 ef3d 6778 28be
00000290: f9b9 b5bc a339 bfbd ecf3 25bc 0104 2e3e
000002a0: e7d6 28bc 7a17 27be 8741 b73d 6fb4 8ebc
000002b0: d87a 1a3d a6d6 72be 80fa 25be 560b 2ebd
000002c0: df1d e03d eedb 40be 384b a13d 6a79 bd3c
000002d0: 7177 88be 1b1a d73c 84ce 8abd 8a8e 143e
000002e0: e77c cbbc 2a17 1d3e 2846 8dbe 73ce c8be
000002f0: 97b9 c6bd c2bd 913e 1066 adbc ea03 fcbd
00000300: 0c69 67be 8f18 a23e a953 7d3e f097 5b3e
00000310: a94f 70be 5029 7a3e 5e56 3ebe 6cc2 133e
00000320: 949b c03e c397 eebd 5bec dcbe cfd1 aebb
00000330: 825f 783e a5a5 e5be 7977 a6be 78ac 733d
00000340: c3e6 d33d d966 293e cc5a f9bc 2efa 6f3e
00000350: 4f56 963e a3d5 0d3e b128 163e b4d4 953e
00000360: 2cd8 ff3d b780 83bd 1426 5c3e 2606 48bd
00000370: 0d3f 203e d168 0bbd 4dfc 6abd 18f0 71bd
00000380: d2cb 4dbe 616d e3be 6ecf 6f3d 3287 cdbd
00000390: dcf1 ab3e 155d 92be 0e74 12be d721 3e3f
000003a0: 0531 0d3e b38a 51be 9c0b 9fbe 99e5 383f
000003b0: 9334 4c3d e63c 213e 008d 003f 1dbc c5be
000003c0: 7ea9 71bd 2003 54bd 7f8a 903e ddac 483e
000003d0: ab68 193f c042 0fbe 0e0d a93d b8d3 99be
000003e0: 274b fbbd b058 b1be 2e6d bebc 2c2e fe3d
000003f0: 0594 02be 454d 3cbe 6a01 84bd 09c2 fb3c

context_transformer_0/kq_shared_bottleneck/norm/mul;context_transformer_0/kq_shared_bottleneck/norm/add;context_transformer_0/attention/key/einsum/Einsum;context_transformer_0/attention/key/add;context_transformer_0/attention/value/einsum/Einsum;context_transformer_0/attention/key/add/ReadVariableOp/resource f4 [32]
-0.06160037 0.023730917 0.049870312 -0.015909879 0.032569148 -0.025550274 0.052780792 -0.07932581
-0.03969603 -0.031622402 0.034306124 -0.037994362 0.035449523 -0.037884507 0.033748783 0.035573047
0.00063240586 0.030107083 0.050605148 -0.04838069 -0.04633829 -0.04032946 0.045386758 -0.039809126
0.060296044 -0.06149259 -0.06625869 -0.058874883 0.066525206 -0.064820245 -0.064511195 -0.05637321
00000000: ab50 7cbd 5767 c23c d044 4c3d 6f55 82bc
00000010: 3a67 053d cf4e d1bc ac30 583d 9275 a2bd
00000020: 4e98 22bd 7e86 01bd 9484 0c3d fa9f 1bbd
00000030: 8533 113d c92c 1bbd 2a3c 0a3d 0bb5 113d
00000040: 0ac8 253a 21a3 f63c 5847 4f3d d52a 46bd
00000050: 38cd 3dbd 8130 25bd 77e7 393d e50e 23bd
00000060: fcf8 763d a7df 7bbd a3b2 87bd ca26 71bd
00000070: 5e3e 883d 7ac0 84bd 721e 84bd 98e7 66bd

context_transformer_0/kq_shared_bottleneck/norm/mul;context_transformer_0/kq_shared_bottleneck/norm/add;context_transformer_0/attention/key/einsum/Einsum;context_transformer_0/attention/key/add;context_transformer_0/attention/value/einsum/Einsum;context_transformer_0/attention/key/add/ReadVariableOp/resource1 f4 [32, 32]
-0.002734234 -0.08770667 -0.053236715 -0.34428492 -0.023114951 0.069846794 -0.034207318 -0.06571042
-0.1032936 0.055584498 -0.14081219 -0.27751455 -0.028942812 -0.055109583 0.16759376 -0.017953983
-0.105981104 0.043934688 0.10285125 0.046997856 0.007884606 0.13027033 -0.03490845 0.21713772
0.024022356 0.06390402 0.016796589 0.28832963 -0.11000042 0.22854532 0.16986662 -0.0026668995
0.04481343 -0.2507342 -0.1252692 -0.20901164 0.1586869 0.15128787 -0.1328504 0.06256323
-0.17221741 0.326566 0.005535615 -0.14292078 0.15983447 -0.18860213 -0.10444708 -0.26588917
0.11586604 0.21951745 -0.10503867 -0.01938406 -0.0365272 0.26479918 -0.056530856 -0.012633511
0.024128923 0.10373652 0.16694725 -0.058581125 -0.18005975 0.11142278 0.044620097 0.060389496
0.025092592 -0.2779014 -0.085390836 -0.120934114 0.19280036 0.13914962 -0.08271598 0.0748279
-0.12843625 0.26668668 0.07219742 -0.040880233 0.1762392 -0.16122894 -0.18703906 -0.20563255
0.1324129 0.13234888 -0.15445383 0.0010698772 -0.06766844 0.21145801 -0.03922545 -0.12445611
-0.026786882 0.10655247 0.120304786 -0.14043033 -0.101928666 0.06435603 -0.0015647591 0.054654486
-0.04493776 0.24761228 0.076800995 0.23230498 -0.1393324 -0.11497157 0.06587754 -0.020294968
0.13626547 -0.26380113 -0.015340492 0.15225692 -0.13202363 0.15808755 0.047852322 0.14783876
-0.08190558 -0.12709749 0.10310191 0.038415175 0.02802365 -0.2002335 0.05173114 0.04151984
0.030815521 -0.0854168 -0.10870088 -0.007117733 0.14484422 -0.103352755 -0.056253247 -0.072191015
-0.03928832 0.13133542 0.076766215 0.2913697 -0.019785633 -0.092990816 0.06266759 0.01908399
0.1351212 -0.14120628 0.09519248 0.20847772 -0.022734217 0.109511375 -0.092637934 0.08420884
0.062053412 -0.09236629 -0.030911624 -0.021389335 -0.021996839 -0.17850569 0.0627073 -0.19667283
0.017480344 -0.044246778 -0.030146623 -0.17086257 0.1246078 -0.18499623 -0.086435355 -0.026864832
0.03290717 -0.19816533 -0.06648346 -0.2960277 0.045046534 0.09159735 -0.043889444 -0.03208847
-0.1271293 0.17499243 -0.073875114 -0.24802938 0.031851646 -0.12774126 0.023906033 -0.10959686
-0.018654238 0.12131984 0.017125735 0.012200946 0.0014700599 0.20031147 -0.0661171 0.10545902
-0.002060764 0.060652025 0.049884293 0.12221534 -0.12054292 0.21041511 0.13220206 0.068216674
-0.027071744 0.05693563 0.034323834 0.24079193 0.051621296 -0.0206288 0.006802506 0.052306127
0.08778507 -0.0466738 0.10865927 0.19048804 0.059165444 0.06963231 -0.1414763 -0.012770527
0.07450206 -0.058155768 -0.124492615 0.013181006 -0.058287736 -0.100638725 0.011058778 -0.1776108
-0.019580033 -0.019585676 0.00786165 -0.2189648 0.12361839 -0.16023698 -0.07474816 -0.04122395
0.039693814 -0.026456585 -0.060434062 -0.33355382 -0.055699732 0.01311125 0.021750672 -0.06902277
-0.094966285 -0.007865023 -0.19346893 -0.26659688 -0.06392752 -0.03132081 0.22150578 -0.0030921034
-0.11965347 0.009112076 0.15379275 0.045891695 0.02761788 0.13329679 -0.018028112 0.289407
0.002376559 0.033957798 -0.049951453 0.33214584 -0.10423845 0.2424245 0.18546419 0.017888924
00000000: d630 33bb 8e9f b3bd be0e 5abd 1d46 b0be
00000010: 915b bdbc d60b 8f3d f91c 0cbd 2f93 86bd
00000020: 988b d3bd 92ac 633d 1231 10be 6316 8ebe
00000030: 7a19 edbc 96ba 61bd b39d 2b3e 3b14 93bc
00000040: 9f0c d9bd dcf4 333d ada3 d23d d380 403d
00000050: 6f2e 013c 9665 053e 2afc 0ebd 5a59 5e3e
00000060: 88ca c43c 1ce0 823d 0099 893c f19f 933e
00000070: e647 e1bd c907 6a3e 84f1 2d3e 26c7 2ebb
00000080: 4a8e 373d 3c60 80be 9246 00be 2607 56be
00000090: d27e 223e 35eb 1a3e ef09 08be 2721 803d
000000a0: c359 30be a933 a73e 1b64 b53b d359 12be
000000b0: a6ab 233e eb20 41be 5ae8 d5bd a022 88be
000000c0: 2d4b ed3d 2fc9 603e 841e d7bd 52cb 9ebc
000000d0: 8c9d 15bd c293 873e e68c 67bd c9fc 4ebc
000000e0: 05aa c53c d073 d43d 38f4 2a3e c3f2 6fbd
000000f0: 9561 38be a031 e43d 90c3 363d fa5a 773d
00000100: fb8e cd3c 1849 8ebe 64e1 aebd 4eac f7bd
00000110: 756d 453e 3d7d 0e3e ff66 a9bd 5f3f 993d
00000120: cb84 03be 288b 883e 3edc 933d 0872 27bd
00000130: 0d78 343e 3319 25be 2b87 3fbe 5791 52be
00000140: 3f97 073e 7786 073e 2529 1ebe 1f3b 8c3a
00000150: c095 8abd 7388 583e deaa 20bd d8e2 febd
00000160: 2a70 dbbc 2e38 da3d 5b62 f63d f8cc 0fbe
00000170: fabf d0bd 18cd 833d 9a18 cdba 62dd 5f3d
00000180: a810 38bd 138e 7d3e d749 9d3d 5be1 6d3e
00000190: 27ad 0ebe 3776 ebbd ceea 863d a241 a6bc
000001a0: 2d89 0b3e f110 87be b056 7bbc 3de9 1b3e
000001b0: 3431 07be b4e1 213e cc00 443d 0b63 173e
000001c0: 1dbe a7bd d825 02be 1827 d33d 3b59 1d3d
000001d0: db91 e53c 030a 4dbe 08e4 533d b510 2a3d
000001e0: d570 fc3c 01ef aebd 919e debd df3b e9bb
000001f0: 0b52 143e 9caa d3bd ce69 66bd e2d8 93bd
00000200: caec 20bd cb7c 063e 9b37 9d3d 692e 953e
00000210: 7b15 a2bc f871 bebd de57 803d 0756 9c3c
00000220: 365d 0a3e 6198 10be 46f4 c23d 2f7b 553e
00000230: 1c3d babc 8047 e03d f5b8 bdbd af75 ac3d
00000240: b82b 7e3d 8a2a bdbd 603a fdbc b038 afbc
00000250: b732 b4bc 32ca 36be af6c 803d 9a64 49be
00000260: f032 8f3c 1c3c 35bd 0df6 f6bc 99f6 2ebe
00000270: 6032 ff3d a76f 3dbe 0505 b1bd a313 dcbc
00000280: abc9 063d daeb 4abe 7b28 88bd f190 97be
00000290: b782 383d 6497 bb3d 6bc5 33bd 336f 03bd
000002a0: 2f2e 02be 3731 333e d64b 97bd 6afb 7dbe
000002b0: df76 023d 9bce 02be 96d6 c33c 5274 e0bd
000002c0: c6d0 98bc 8976 f83d 454b 8c3c 7ae6 473c
000002d0: 06af c03a 731e 4d3e 6768 87bd e6fa d73d
000002e0: e20d 07bb 426e 783d 7953 4c3d 094c fa3d
000002f0: 35df f6bd 0f77 573e fa5f 073e 2fb5 8b3d
00000300: 90c5 ddbc 5635 693d 2697 0c3d 2992 763e
00000310: da70 533d bbfd a8bc 8ee7 de3b f33e 563d
00000320: a9c8 b33d 072d 3fbd c088 de3d 4c0f 433e
00000330: 7757 723d 629b 8e3d 2adf 10be 793b 51bc
00000340: 8994 983d be34 6ebd fcf5 febd 25f5 573c
00000350: 1fbf 6ebd ad1b cebd e02f 353c 9bdf 35be
00000360: 4e66 a0bc 2472 a0bc 26ce 003c 4f38 60be
00000370: a32b fd3d 2a15 24be 9015 99bd 72da 28bd
00000380: fb95 223d 7bbb d8bc b589 77bd 91c7 aabe
00000390: 6725 64bd 91d0 563c 772e b23c cf5b 8dbd
000003a0: af7d c2bd 4cdc 00bc b81c 46be 637f 88be
000003b0: 6eec 82bd 404a 00bd 69d2 623e e3a4 4abb
000003c0: e10c f5bd d14a 153c d97b 1d3e eef8 3b3d
000003d0: e43e e23c f47e 083e b1af 93bc 282d 943e
000003e0: 0bc0 1b3b 5517 0b3d e599 4cbd 050f aa3e
000003f0: f87a d5bd 213e 783e 53ea 3d3e cb8b 923c

context_transformer_0/kq_shared_bottleneck/norm/mul;context_transformer_0/kq_shared_bottleneck/norm/add;context_transformer_0/attention/query/einsum/Einsum;context_transformer_0/attention/query/add;context_transformer_0/attention/value/einsum/Einsum;context_transformer_0/attention/query/add/ReadVariableOp/resource;context_transformer_0/attention/Mul;context_transformer_0/attention/Mul/y f4 [32]
-0.06676782 0.107291274 0.10073553 -0.070476644 0.01302835 0.007130338 0.040157672 -0.09550636
0.09432016 0.11168802 -0.09303001 0.09829934 -0.0960305 0.08746962 -0.09361698 -0.10861753
0.035321217 0.063767575 -0.006863155 -0.0037533178 0.008279078 0.00544073 -0.0027607204 0.04916584
0.07726451 -0.0868036 -0.08877942 -0.07443303 0.08885128 -0.097249284 -0.0948562 -0.07484421
00000000: 91bd 88bd 87bb db3d 6e4e ce3d 0f56 90bd
00000010: dc74 553c 9ca5 e93b 5f7c 243d d798 c3bd
00000020: ee2a c13d b0bc e43d 8586 bebd 2a51 c93d
00000030: a4ab c4bd 4623 b33d 42ba bfbd de72 debd
00000040: fbac 103d 9398 823d 51e4 e0bb 39fa 75bb
00000050: f8a4 073c 2748 b23b 34ed 34bb 1f62 493d
00000060: db3c 9e3d 16c6 b1bd fcd1 b5bd 5870 98bd
00000070: a9f7 b53d a22a c7bd f843 c2bd ec47 99bd

context_transformer_0/kq_shared_bottleneck/norm/mul;context_transformer_0/kq_shared_bottleneck/norm/add;context_transformer_0/attention/query/einsum/Einsum;context_transformer_0/attention/query/add;context_transformer_0/attention/value/einsum/Einsum;context_transformer_0/attention/query/add/ReadVariableOp/resource;context_transformer_0/attention/Mul;context_transformer_0/attention/Mul/y1 f4 [32, 32]
-0.027762935 0.07915857 0.008699821 -0.11412924 -0.033189565 0.001831293 0.028481083 -0.039372023
0.02379267 -0.060960352 -0.02438464 -0.023708723 -0.061157778 0.039461777 0.061695054 0.0346126
-0.048572775 -0.049775817 0.015149714 -0.01098297 0.044981465 -0.03521616 0.005344613 0.011445324
0.020614864 -0.04169154 -0.018645158 0.04247536 0.017443016 0.020659046 0.04229972 0.0015399903
-0.066203676 0.013326173 0.05313909 -0.046408184 -0.006648561 -0.0564055 0.005136004 -0.009580173
0.053380024 -0.024675133 -0.0032986216 0.0014873614 -0.016383557 0.001362669 0.12541302 0.0146076735
-0.014866383 7.4249976e-05 0.0038648008 0.062369037 -0.023285653 0.004432079 -0.039924696 0.03307681
-0.05614656 -0.050913732 -0.015970271 0.10152625 0.047094546 0.036613535 -0.0135476 -0.05780049
-0.067434445 -0.022610027 0.043292273 -0.0103189675 0.017765135 -0.037913993 -0.005197567 0.011643441
0.03686023 -0.012610501 0.009863621 0.03494694 0.008187604 -0.00063999684 0.07742566 -0.021709384
0.021452192 -0.0010098894 0.002507956 0.061701305 -0.048160054 0.015223673 -0.027117752 0.0073815985
-0.049163636 -0.032693934 0.012725619 0.052216038 0.032058984 -0.0029072599 -0.029979818 -0.048221905
0.044320747 -0.009823348 -0.03344893 0.04681236 0.012932063 0.019803943 0.013010275 0.0064615887
-0.037960444 0.015583189 -0.0024497292 -0.013927814 0.013114855 -0.009798879 -0.10470482 -0.003939661
0.0077719097 0.005626053 -0.004444696 -0.04645624 0.025172025 -0.0057778438 0.015393525 -0.017401326
0.028361006 0.03469101 0.0076722037 -0.08042029 -0.0335528 -0.013414162 0.022490518 0.03949585
0.034680195 -0.03716134 0.0032912449 0.099460356 0.022561934 -3.1777312e-05 -0.015666723 0.0154317105
-0.025803588 0.029053146 0.004845379 -0.010504615 0.0369432 -0.022509031 -0.08143915 -0.017903836
0.025998818 0.019335117 0.022896575 -0.014926039 -0.028522557 0.013679306 0.0051398464 0.0012681765
0.001182492 0.037506264 0.007545902 -0.05493934 -0.009585376 0.0019571034 -0.008196467 -0.0016040324
-0.036775835 0.04195764 0.0038348027 -0.0919941 -0.025016807 -0.015477791 0.0076140757 -0.018734757
0.023524703 -0.03413873 -0.005178955 0.0033350775 -0.04277367 0.025793727 0.10041112 0.017646644
-0.022982027 -0.02281667 -0.0033041262 0.031252317 -0.00020044422 -0.011356138 -0.010576296 -0.0041468316
-0.013433758 -0.040200382 -0.010310001 0.0753669 0.023034826 0.021864414 0.01183914 -0.022596614
0.005759443 -0.041462872 0.014102682 0.075016305 0.029266337 -0.007256272 -0.01080296 0.012591587
-0.014637436 0.03529195 -0.0020787292 -0.0021945052 0.0437475 -0.021037366 -0.04729877 -0.008790422
0.036319945 0.027765717 0.022442434 -0.00040951782 -0.043455325 0.024068566 -0.0051567387 0.0045212107
-0.025554989 0.027101723 0.0014892697 -0.024769982 -0.006037002 0.0025878113 -0.012154321 -0.0053969407
-0.001887474 0.0895353 -0.02246933 -0.109358035 -0.044793446 0.011407137 0.022692954 -0.053813133
0.017993502 -0.07795713 -0.04781683 -0.03756162 -0.07074403 0.04319643 0.06418691 0.061742708
-0.05866783 -0.031969223 0.030749526 -0.022089768 0.046954863 -0.031205898 0.0051871287 0.024965787
0.030695364 -0.027618365 -0.030631162 0.056251276 0.0073010386 0.031012407 0.04888798 0.011127418
00000000: 186f e3bc e31d a23d b289 0e3c 97bc e9bd
00000010: c8f1 07bd ff07 f03a 2951 e93c 8f44 21bd
00000020: d8e8 c23c 90b1 79bd 4cc2 c7bc cc38 c2bc
00000030: 9480 7abd aca2 213d f4b3 7c3d f1c5 0d3d
00000040: 3ff4 46bd bae1 4bbd 8236 783c eaf1 33bc
00000050: 7c3e 383d d23e 10bd dd21 af3b 2b85 3b3c
00000060: 81e0 a83c c0c4 2abd bbbd 98bc a5fa 2d3d
00000070: a8e4 8e3c 293d a93c 7942 2d3d 80d9 c93a
00000080: cb95 87bd 0556 5a3c 60a8 593d 8216 3ebd
00000090: 2cdc d9bb 7409 67bd ed4b a83b 28f6 1cbc
000000a0: 03a5 5a3d 8123 cabc b02d 58bb 91f3 c23a
000000b0: cf36 86bc 969b b23a 456c 003e 0655 6f3c
000000c0: 2192 73bc a7b6 9b38 9948 7d3b ad76 7f3d
000000d0: 8ec1 bebc f93a 913b 1488 23bd 8d7b 073d
000000e0: eff9 65bd eb8a 50bd 16d4 82bc ffec cf3d
000000f0: 36e6 403d 13f8 153d c1f6 5dbc 35c0 6cbd
00000100: 121b 8abd aa38 b9bc 3d53 313d e310 29bc
00000110: 3088 913c b44b 1bbd 5a50 aabb 22c4 3e3c
00000120: c1fa 163d 469c 4ebc 069b 213c 8624 0f3d
00000130: 4d25 063c 76c5 27ba 5891 9e3d e1d7 b1bc
00000140: 82bc af3c 445e 84ba 855c 243b 82ba 7c3d
00000150: 7a43 45bd b66c 793c 0c26 debc 56e1 f13b
00000160: cf5f 49bd 13ea 05bd 1d7f 503c 7ce0 553d
00000170: 4850 033d ba87 3ebb 3c98 f5bc 5584 45bd
00000180: ac89 353d 1cf2 20bc bf01 09bd 51be 3f3d
00000190: 01e1 533c e13b a23c 0c29 553c bcbb d33b
000001a0: 697c 1bbd a250 7f3c a38b 20bb 7c31 64bc
000001b0: b0df 563c 7a8b 20bc 7b6f d6bd 4618 81bb
000001c0: 81ab fe3b c15a b83b d0a4 91bb e648 3ebd
000001d0: 9035 ce3c 1154 bdbb 2035 7c3c 3a8d 8ebc
000001e0: 5755 e83c 2918 0e3d 1c67 fb3b 65b3 a4bd
000001f0: a96e 09bd 13c7 5bbc 093e b83c 67c6 213d
00000200: d20c 0e3d 7d36 18bd edb1 573b dfb1 cb3d
00000210: ced3 b83c a148 05b8 8057 80bc 49d5 7c3c
00000220: 0c62 d3bc dd00 ee3c fcc5 9e3b 8c1b 2cbc
00000230: c151 173d dc64 b8bc 92c9 a6bd 11ab 92bc
00000240: 79fb d43c ae64 9e3c 9991 bb3c 588c 74bc
00000250: 23a8 e9bc 2b1f 603c 286c a83b f138 a63a
00000260: d9fd 9a3a 2ba0 193d 9d43 f73b 1308 61bd
00000270: fb0b 1dbc bf42 003b 794a 06bc 653e d2ba
00000280: 42a2 16bd c6db 2b3d 5051 7b3b 6767 bcbd
00000290: 0cf0 ccbc 9096 7dbc 7f7f f93b a279 99bc
000002a0: e1b6 c03c 0ed5 0bbd 39b4 a9bb 5191 5a3b
000002b0: 7233 2fbd 5e4d d33c 58a4 cd3d b28f 903c
000002c0: ce44 bcbc 06ea babc 0a8a 58bb 6e02 003d
000002d0: 562e 52b9 180f 3abc 3348 2dbc 25e2 87bb
000002e0: 4419 5cbc 28a9 24bd 47eb 28bc f659 9a3d
000002f0: 88b3 bc3c 001d b33c f4f8 413c 891c b9bc
00000300: b6b9 bc3b f9d4 29bd ef0e 673c 26a2 993d
00000310: f5bf ef3c 05c6 edbb e6fe 30bc f24c 4e3c
00000320: dbd1 6fbc 4b8e 103d 4a3b 08bb b0d1 0fbb
00000330: 9430 333d 8e56 acbc 5bbc 41bd b405 10bc
00000340: 39c4 143d ee74 e33c 32d9 b73c 8db4 d6b9
00000350: 36fe 31bd 712b c53c dcf9 a8bb aa26 943b
00000360: b258 d1bc 6f04 de3c 9933 c33a 6bea cabc
00000370: 0bd2 c5bb 4598 293b eb22 47bc d2d8 b0bb
00000380: 1e65 f7ba 495e b73d 9a11 b8bc 1bf7 dfbd
00000390: 5579 37bd 00e5 3a3c 93e6 b93c 296b 5cbd
000003a0: 1c67 933c fda7 9fbd 95db 43bd 37da 19bd
000003b0: 3fe2 90bd bdee 303d 6d74 833d ece5 7c3d
000003c0: ae4d 70bd 29f2 02bd 6ee6 fb3c 9af5 b4bc
000003d0: be53 403d 83a3 ffbc caf8 a93b 0d85 cc3c
000003e0: d874 fb3c e93f e2bc 34ee fabc bd67 663d
000003f0: 8d3d ef3b bb0d fe3c c33e 483d c64f 363c

context_transformer_0/ffn_layer_0/intermediate_dense/einsum/Einsum;context_transformer_0/ffn_layer_0/intermediate_dense/Relu;context_transformer_0/ffn_layer_0/intermediate_dense/add f4 [32]
-0.06069533 -0.3824752 -0.33737272 -0.32825583 -0.20145844 -0.41063178 -0.4206476 -0.3191422
-0.55018353 -0.30412832 -0.4185521 -0.32173857 -0.14896744 -0.2958964 -0.4347512 -0.22804278
-0.30265412 -0.57169473 -0.0064637326 -0.58639723 -0.2453619 -0.46539778 -0.2887089 -0.47846425
-0.3198663 -0.49564132 -0.3201658 -0.54989 -0.17621602 -0.10084618 -0.32737482 -0.36476785
00000000: ab9b 78bd cad3 c3be 1ebc acbe 2611 a8be
00000010: 1f4b 4ebe 543e d2be 1f5f d7be 9b66 a3be
00000020: d4d8 0cbf b5b6 9bbe 764c d6be ebba a4be
00000030: ec8a 18be bc7f 97be b697 debe 0c84 69be
00000040: 7bf5 9abe 965a 12bf b8cd d3bb 211e 16bf
00000050: 2640 7bbe 9e48 eebe a7d1 93be 44f9 f4be
00000060: 84c5 a3be b3c4 fdbe c6ec a3be 97c5 0cbf
00000070: f971 34be 7188 cebd ac9d a7be dac2 babe

context_transformer_0/attention/norm/mul;context_transformer_0/attention/norm/add;context_transformer_0/ffn_layer_0/intermediate_dense/einsum/Einsum;context_transformer_0/ffn_layer_0/intermediate_dense/Relu;context_transformer_0/ffn_layer_0/intermediate_dense/add f4 [32, 32]
0.29107568 0.06608619 -0.03118946 0.48112804 0.2835411 0.010868466 -0.006032927 -0.060461935
0.19885175 0.05663088 -0.03539486 -0.46874815 -0.12416762 -0.107800424 -0.33085746 0.043366417
0.18631792 -0.008818105 0.16061449 -0.15783304 0.07332005 0.04851724 -0.27464595 -0.19554435
-0.109049976 0.04447401 -0.23210941 -0.0544325 -0.015753249 -0.4636127 -0.23703605 0.066931464
0.0013183274 0.09621155 -0.18834548 0.24249615 0.008732701 -0.4411164 -0.17794284 0.024061292
0.39874795 -0.2152241 -0.020505847 -0.009214239 -0.08277682 0.010708181 -0.18424402 0.082465015
-0.14175285 -0.06700087 -0.051244963 -0.06891832 0.13496807 0.032500736 -0.017989336 -0.15695226
-0.027447872 -0.17975053 -0.02606337 0.14910033 -0.18370116 -0.33421305 -0.02900378 0.07608064
0.0049946234 0.15383011 -0.13236071 -0.058179576 0.08445838 -0.27333277 0.071612984 0.029047228
0.50180495 0.49162102 -0.12503186 0.047267888 -0.109689735 -0.08047304 -0.16375381 0.0718489
0.04805119 0.34316695 -0.07742971 0.361056 -0.030983482 -0.046936605 -0.055299237 0.050007723
-0.15776473 -0.27088365 -0.31337932 0.15104598 0.091704056 -0.05438174 0.07634655 0.17757973
-0.050649133 0.024166051 -0.22477667 0.10397727 -0.0068185274 -0.2746996 0.04284063 -0.40858573
0.037021652 -0.23818791 -0.0070377556 0.054652132 -0.2003593 -0.1867893 -0.34180948 -0.058094565
0.0042607947 -0.08515628 -0.3300544 0.42379758 -0.027372334 -0.10021386 -0.14075553 -0.09260098
0.29042295 0.003884037 0.12790768 0.28557417 -0.22019187 -0.045215126 -0.0012543944 0.0074657393
-0.3336809 0.116828874 -0.22428545 -0.25075206 -0.11964828 -0.21750776 -0.17623651 0.03937333
0.0042024604 -0.2594319 0.079099216 0.10538875 0.20745184 0.06348411 0.22097693 -0.030980276
-0.0949864 -0.05755493 -0.19604786 0.20064013 0.06548405 -0.048448212 0.47305462 -0.021134965
0.06699036 -0.16543198 -0.100329354 0.22076696 0.07885602 0.41712254 0.16642913 0.05318739
0.0125577655 0.040554892 -0.0444271 0.18612598 -0.22389288 -0.42698044 -0.19531332 0.23222324
0.4042224 -0.13053335 0.0066282684 0.092321254 -0.022398427 0.028766861 -0.15157078 0.18503672
-0.22067879 -0.019353744 0.014171245 -0.21549544 0.17071398 0.006159178 -0.0051183742 -0.14577314
-0.07252072 -0.37474078 0.041048754 0.097457446 -0.07250717 -0.32273358 -0.03698861 0.097048596
-0.14612822 -0.074185684 -0.15081869 0.1789699 0.1312649 -0.277551 -0.030009529 0.024418605
0.35962078 0.044251405 -0.15734465 0.050283484 -0.10265511 0.15971193 -0.19855784 -0.11808556
0.01345175 0.35774866 0.10045009 0.3915843 0.14299363 0.16241612 0.11166635 -0.19728208
0.22007762 -0.51458293 -0.17291138 0.2048841 -0.13880317 -0.10926907 0.08267472 0.017949166
-0.061672058 0.14635949 -0.012661774 0.07275173 -0.07572808 -0.36761877 -0.041395266 0.1661063
0.3736637 -0.017873665 0.21782687 0.050537907 -0.022238651 0.021204716 -0.16391216 -0.054501165
-0.31091428 -0.0046374574 -0.12915143 -0.18765572 0.20086779 -0.06893377 0.009062331 0.0043825284
-0.042274456 -0.26369166 -0.011378534 0.14757122 -0.07924665 -0.21986066 0.023143092 0.13536891
00000000: df07 953e 3258 873d 0a81 ffbc 6a56 f63e
00000010: 4d2c 913e a711 323c dcaf c5bb efa6 77bd
00000020: cb9f 4b3e c8f5 673d 33fa 10bd c2ff efbe
00000030: 984b febd 78c6 dcbd 2666 a9be fca0 313d
00000040: 20ca 3e3e d079 10bc 2078 243e fc9e 21be
00000050: d328 963d 03ba 463d 659e 8cbe c73c 48be
00000060: 9855 dfbd 612a 363d 17ae 6dbe 9df4 5ebd
00000070: f50c 81bc a55e edbe 94b9 72be 5d13 893d
00000080: bacb ac3a 900a c53d a3dd 40be e950 783e
00000090: 9a13 0f3c 02da e1be a636 36be 301c c53c
000000a0: b128 cc3e b563 5cbe e1fb a7bc 52f7 16bc
000000b0: e586 a9bd 5e71 2f3c 77aa 3cbe 6be3 a83d
000000c0: a927 11be c137 89bd 3de6 51bd 0c25 8dbd
000000d0: 1235 0a3e 7e1f 053d 5f5e 93bc 18b8 20be
000000e0: 5cda e0bc 8610 38be d982 d5bc c2ad 183e
000000f0: 281c 3cbe f91d abbe 5699 edbc 2bd0 9b3d
00000100: f0a9 a33b a485 1d3e 9189 07be b54d 6ebd
00000110: 84f8 ac3d 46f2 8bbe d4a9 923d 74f4 ed3c
00000120: 4a76 003f c0b5 fb3e 5a08 00be f99b 413d
00000130: 03a5 e0bd 0dcf a4bd 14af 27be 8425 933d
00000140: 53d1 443d 94b3 af3e 7893 9ebd 55dc b83e
00000150: 12d1 fdbc 9940 40bd 7481 62bd e6d4 4c3d
00000160: 148d 21be 43b1 8abe 4173 a0be ccab 1a3e
00000170: 56cf bb3d 63bf 5ebd 945b 9c3d 76d7 353e
00000180: 7775 4fbd e2f7 c53c db2b 66be 09f2 d43d
00000190: f46d dfbb 6da5 8cbe a879 2f3d 2632 d1be
000001a0: 04a4 173d 88e7 73be f99c e6bb eada 5f3d
000001b0: fd2a 4dbe b245 3fbe a701 afbe 91f4 6dbd
000001c0: 239e 8b3b 6a66 aebd e4fc a8be fffb d83e
000001d0: f23b e0bc ed3c cdbd 3822 10be 95a5 bdbd
000001e0: 51b2 943e 548b 7e3b 3bfa 023e c736 923e
000001f0: fa79 61be 7f33 39bd 7e6a a4ba 29a3 f43b
00000200: 39d8 aabe fa43 ef3d 16ab 65be 9362 80be
00000210: 280a f5bd 5bba 5ebe 5877 34be ee45 213d
00000220: cbb4 893b 42d4 84be c5fe a13d 0fd6 d73d
00000230: 416e 543e f503 823d c747 623e 59ca fdbc
00000240: 3b88 c2bd b8be 6bbd c5c0 48be 9b74 4d3e
00000250: 801c 863d a271 46bd 3734 f23e 3c23 adbc
00000260: 3e32 893d 0067 29be 7a79 cdbd bc10 623e
00000270: 447f a13d 1691 d53e 666c 2a3e 05db 593d
00000280: 16bf 4d3c e31c 263d 31f9 35bd cf97 3e3e
00000290: 2d44 65be 2e9d dabe 3700 48be eecb 6d3e
000002a0: 3df6 ce3e 89aa 05be f231 d93b ed12 bd3d
000002b0: e87c b7bc 7ba8 eb3c 5f35 1bbe 447a 3d3e
000002c0: 9ff9 61be be8b 9ebc 822e 683c d6aa 5cbe
000002d0: a5cf 2e3e eed2 c93b 09b8 a7bb 8e45 15be
000002e0: be85 94bd 06de bfbe bd22 283d c597 c73d
000002f0: a47e 94bd 563d a5be 5e81 17bd 6ac1 c63d
00000300: a3a2 15be aaee 97bd 3770 1abe e343 373e
00000310: 4e6a 063e 2a1b 8ebe 8bd6 f5bc 8709 c83c
00000320: 3720 b83e f640 353d f51e 21be 0ef6 4d3d
00000330: d83c d2bd 868b 233e bf52 4bbe d8d6 f1bd
00000340: bb64 5c3c d52a b73e c7b8 cd3d bd7d c83e
00000350: ec6c 123e 6950 263e 54b1 e43d 5004 4abe
00000360: 075c 613e b5bb 03bf ae0f 31be 23cd 513e
00000370: 6b22 0ebe 76c8 dfbd 5d51 a93d 210a 933c
00000380: d79b 7cbd 43df 153e 5473 4fbc dcfe 943d
00000390: 5317 9bbd 8738 bcbe 158e 29bd c517 2a3e
000003a0: d950 bf3e cb6b 92bc 020e 5f3e d600 4f3d
000003b0: d52d b6bc 83b5 ad3c 97d8 27be 9d3c 5fbd
000003c0: 2830 9fbe d0f5 97bb 4640 04be d228 40be
000003d0: 49b0 4d3e 262d 8dbd 2c7a 143c 509b 8f3b
000003e0: fb27 2dbd 9802 87be 086d 3abc e91c 173e
000003f0: 114c a2bd 2723 61be 9596 bd3c 269e 0a3e

context_transformer_0/ffn_layer_1/intermediate_dense/einsum/Einsum;context_transformer_0/ffn_layer_1/intermediate_dense/Relu;context_transformer_0/ffn_layer_1/intermediate_dense/add f4 [32]
0.1431355 -0.08781248 0.08234874 0.10923969 0.12149367 -0.27991307 -0.043462485 0.13755867
0.17402034 -0.118227884 -0.078049034 0.11802254 0.21739516 0.021784076 -0.3023534 -0.3286604
0.079985045 0.070530616 0.053959057 -0.08483896 0.28988662 -0.15835151 0.006455519 -0.04827951
-0.24556188 -0.3948685 0.08390622 0.20960945 -0.16220514 0.13224198 -0.21356578 0.23486826
00000000: 1d92 123e 08d7 b3bd 75a6 a83d 0fb9 df3d
00000010: acd1 f83d c450 8fbe b805 32bd 2edc 0c3e
00000020: 6332 323e 7621 f2bd 2cd8 9fbd cdb5 f13d
00000030: d69c 5e3e 8574 b23c 11ce 9abe 2d46 a8be
00000040: 33cf a33d 5b72 903d 2c04 5d3d 0cc0 adbd
00000050: 056c 943e e626 22be d188 d33b bcc0 45bd
00000060: 9374 7bbe 342c cabe 06d7 ab3d dca3 563e
00000070: 1b19 26be 716a 073e fdb0 5abe 4e81 703e

context_transformer_0/ffn_layer_0/norm/mul;context_transformer_0/ffn_layer_0/norm/add;context_transformer_0/ffn_layer_1/intermediate_dense/einsum/Einsum;context_transformer_0/ffn_layer_1/intermediate_dense/Relu;context_transformer_0/ffn_layer_1/intermediate_dense/add f4 [32, 32]
0.22619161 0.053165965 -0.27929735 0.29512724 -0.25568792 -0.0034329316 0.07900094 0.13040471
0.1307333 0.00337329 0.011928237 -0.218189 0.11944053 -0.06836722 -0.15150121 0.07867857
0.16110441 0.36824808 -0.06527733 0.029942904 0.087160714 -0.17761728 0.12454688 -0.042521443
-0.012534325 0.19651696 -0.25632966 -0.44358525 -0.12761246 0.19781107 -0.25044328 0.036617715
-0.0028258907 0.003398641 0.005574227 -0.0066676117 0.007032506 -0.03393516 0.011920432 -0.006647568
-0.008198909 -0.016104845 0.023668893 -0.008522261 -0.021309216 0.009426161 -0.031244513 0.03534676
0.037592135 0.022290567 -0.029152032 -0.014593422 0.04963423 -0.024560936 0.021689655 0.025707383
-0.004462562 -0.0002597082 -0.0042255335 0.041729644 0.013577775 0.0025576977 0.029959323 0.0066977115
-0.28095427 0.04366762 0.0952685 0.029186834 -0.23117532 -0.29494858 0.017222416 -0.41521752
-0.0010443128 -0.016150633 0.0002402414 -0.0927763 -0.044474024 -0.153948 -0.13735475 0.16300187
0.24029574 -0.13888577 -0.33821696 -0.09445321 -0.09499026 0.067626566 -0.1779955 -0.17785074
0.23215629 0.17451271 -0.022661705 0.35472718 0.16035654 -0.19009398 0.2811219 0.21109815
0.04637928 0.056785442 0.07964905 -0.18041074 -0.061423138 -0.34125185 0.18487664 0.050692968
0.16776597 0.033937186 0.15590326 -0.24948691 0.18631242 0.07758368 0.16344392 0.09490247
0.059273303 0.13480432 0.0290705 -0.32307038 0.26664227 0.0809598 -0.03850195 0.34410688
0.0008193459 0.045992706 -0.16052645 0.03303967 0.27904516 0.097680666 -0.010363207 0.079553425
0.14709984 0.17553982 -0.34765616 -0.096317 0.17962667 -0.3782646 0.20910579 -0.03470926
0.114614 0.121621005 0.20932887 0.047165345 0.24692976 -0.011103378 0.21558946 -0.09665345
-0.056970526 0.23503411 0.15683785 0.10468927 0.24075365 0.19681671 -0.06741752 0.13917494
0.015713556 0.065047756 0.018950723 0.01758375 0.019258503 0.15837832 -0.1650243 -0.20764689
0.02508822 -0.04951116 0.023425713 0.018380849 0.069210984 0.007437667 -0.043543827 0.09041564
0.08716222 -0.1228965 -0.06641968 -0.03547737 -0.007410854 -0.2583851 -0.006751169 -0.025388574
0.08106917 0.04674329 0.06697317 -0.08507799 0.006227464 -0.28699884 -0.177407 0.048775602
0.12407753 -0.071750134 -0.4339871 0.13473924 -0.061575152 -0.27732226 0.05049416 0.012099368
-0.010087095 -0.0008235553 -0.11566443 0.09145439 -0.11875186 -0.03678212 0.06777288 -0.0696965
0.04885218 0.053700183 0.1451511 -0.09521242 0.0392757 -0.089038886 -0.04757471 0.029435446
0.08310187 -0.028144341 -0.22218731 0.0033575892 0.014156678 -0.1026155 0.06940378 -0.1115982
0.05428675 0.17635031 -0.075099476 -0.005381309 0.16577917 -0.07562643 0.07079948 0.12860622
-0.028085245 0.14963585 -0.043302655 -0.20869152 -0.08333449 -0.06628385 0.0422016 -0.16149803
0.0848423 0.62575984 -0.13928938 0.1574403 -0.096794754 -0.27289945 0.049314544 -0.049928423
0.17923824 0.24796157 0.055312417 0.15815382 0.012790903 0.12092175 0.027371332 0.11589854
-0.065857984 -0.16479996 0.47871608 0.05409461 0.12491925 -0.036392752 0.10380994 0.03894332
00000000: c69e 673e 8ec4 593d 1000 8fbe eb1a 973e
00000010: 87e9 82be 09fb 60bb 3fcb a13d d088 053e
00000020: f3de 053e 6a12 5d3b a76e 433c f06c 5fbe
00000030: 3d9d f43d 1d04 8cbd 2223 1bbe 3b22 a13d
00000040: 8ef8 243e 038b bc3e 1fb0 85bd d24a f53c
00000050: 5181 b23d 4ee1 35be 6f12 ff3d f72a 2ebd
00000060: c55c 4dbc be3b 493e a43d 83be 9b1d e3be
00000070: d7ac 02be fc8e 4a3e 1a3a 80be 75fc 153d
00000080: 9432 39bb bcbb 5e3b 01a8 b63b fb7b dabb
00000090: f070 e63b 98ff 0abd ea4d 433c d8d3 d9bb
000000a0: b854 06bc 4fee 83bc 44e5 c13c f4a0 0bbc
000000b0: aa90 aebc 2f70 1a3c 7ef4 ffbc c4c7 103d
000000c0: 36fa 193d b59a b63c 3ed0 eebc 4019 6fbc
000000d0: 434d 4b3d 0434 c9bc 81ae b13c 4a98 d23c
000000e0: af3a 92bb 7229 88b9 5876 8abb b4ec 2a3d
000000f0: 5175 5e3c 0c9f 273b 416d f53c 7a78 db3b
00000100: 3dd9 8fbe d1dc 323d 221c c33d 3a19 ef3c
00000110: 39b9 6cbe 8003 97be 0616 8d3c 6497 d4be
00000120: 53e1 88ba 554e 84bc 4fe9 7b39 8001 bebd
00000130: 652a 36bd 8ba4 1dbe b9a6 0cbe f6e9 263e
00000140: 1610 763e 1238 0ebe c62a adbe af70 c1bd
00000150: 418a c2bd cc7f 8a3d 7444 36be 811e 36be
00000160: 61ba 6d3e 76b3 323e 0aa5 b9bc cd9e b53e
00000170: 8134 243e ffa7 42be 36ef 8f3e 1d2a 583e
00000180: 33f8 3d3d da97 683d 0b1f a33d 98bd 38be
00000190: d496 7bbd 90b8 aebe 4d50 3d3e 6ea3 4f3d
000001a0: d8ca 2b3e b801 0b3d 1ba5 1f3e 7f79 7fbe
000001b0: afc8 3e3e 31e4 9e3d d85d 273e 3a5c c23d
000001c0: 90c8 723d 250a 0a3e 4225 ee3c 7b69 a5be
000001d0: 5685 883e 40ce a53d 39b4 1dbd c72e b03e
000001e0: 5fc9 563a d962 3c3d 0c61 24be 9b54 073d
000001f0: 02df 8e3e cd0c c83d 71ca 29bc e8ec a23d
00000200: 57a1 163e b6c0 333e fdff b1be d941 c5bd
00000210: 0ef0 373e e6ab c1be d41f 563e 4c2b 0ebd
00000220: bfba ea3d 6f14 f93d 4f5a 563e 7330 413d
00000230: 28db 7c3e f1ea 35bc 7cc3 5c3e 3ef2 c5bd
00000240: ed59 69bd c8ac 703e 1a9a 203e 5467 d63d
00000250: 2088 763e 528a 493e 3212 8abd e083 0e3e
00000260: b7b9 803c c237 853d 8c3e 9b3c cc0b 903c
00000270: 02c4 9d3c ed2d 223e 21fc 28be 63a1 54be
00000280: d085 cd3c 37cc 4abd 48e7 bf3c 6f93 963c
00000290: 7dbe 8d3d acb7 f33b 035b 32bd d62b b93d
000002a0: 1b82 b23d 29b1 fbbd 0b07 88bd b850 11bd
000002b0: c0d6 f2bb 0d4b 84be e938 ddbb b3fb cfbc
000002c0: 9807 a63d e475 3f3d 3b29 893d 5f3d aebd
000002d0: c10f cc3b 83f1 92be 2eaa 35be edc8 473d
000002e0: 5c1c fe3d bcf1 92bd 8f33 debe 15f9 093e
000002f0: 3a36 7cbd 2ffd 8dbe f7d2 4e3d 6d3c 463c
00000300: 5844 25bc dce3 57ba 79e1 ecbd 704c bb3d
00000310: 2d34 f3bd d9a8 16bd 82cc 8a3d 0abd 8ebd
00000320: 3919 483d b9f4 5b3d 7da2 143e bbfe c2bd
00000330: 8edf 203d 055a b6bd b3dd 42bd 9b22 f13c
00000340: 5031 aa3d f68e e6bc 1285 63be 000b 5c3b
00000350: 69f1 673c 1328 d2bd 9223 8e3d 998d e4bd
00000360: c85b 5e3d 2d95 343e c1cd 99bd b155 b0bb
00000370: 04c2 293e 08e2 9abd 51ff 903d 59b1 033e
00000380: 0713 e6bc 243a 193e 205e 31bd 3bb3 55be
00000390: 46ab aabd d4bf 87bd 96db 2c3d bd5f 25be
000003a0: cdc1 ad3d cc31 203f e0a1 0ebe 0838 213e
000003b0: 543c c6bd 7ab9 8bbe 0cfe 493d bf81 4cbd
000003c0: 3b8a 373e a3e9 7d3e 468f 623d 13f3 213e
000003d0: f090 513c d3a5 f73d d839 e03c 375c ed3d
000003e0: 8de0 86bd 52c1 28be 461a f53e 4f92 5d3d
000003f0: aad5 ff3d 9110 15bd 4e9a d43d 0883 1f3d

context_transformer_0/ffn_layer_2/intermediate_dense/einsum/Einsum;context_transformer_0/ffn_layer_2/intermediate_dense/Relu;context_transformer_0/ffn_layer_2/intermediate_dense/add f4 [32]
-0.27065378 -0.40445942 0.033652212 -0.071198925 0.0015663233 -0.16019158 -0.06756214 -0.07955088
-0.26174226 -0.053918924 -0.24733824 -0.111521065 -0.40750673 -0.061122008 -0.12369386 -0.08116454
-0.03301327 -0.4678495 -0.08963267 0.12815604 -0.27893844 0.062345263 -0.42743456 -0.13309303
-0.26250425 -0.14665358 -0.03347189 -0.32878283 -0.12427187 -0.19477454 -0.31132582 -0.49000975
00000000: 2293 8abe 4e15 cfbe e7d6 093d bed0 91bd
00000010: 174d cd3a 4309 24be 055e 8abd 92eb a2bd
00000020: 1503 86be 17da 5cbd 3c46 7dbe 2865 e4bd
00000030: b9a4 d0be 125b 7abd 3553 fdbd 9839 a6bd
00000040: ec38 07bd f889 efbe 5591 b7bd 563b 033e
00000050: 05d1 8ebe bf5d 7f3d b4d8 dabe 8a49 08be
00000060: f566 86be 5b2c 16be d219 09bd 3956 a8be
00000070: 4082 febd fa72 47be 1966 9fbe 8fe2 fabe

context_transformer_0/ffn_layer_1/norm/mul;context_transformer_0/ffn_layer_1/norm/add;context_transformer_0/ffn_layer_2/intermediate_dense/einsum/Einsum;context_transformer_0/ffn_layer_2/intermediate_dense/Relu;context_transformer_0/ffn_layer_2/intermediate_dense/add f4 [32, 32]
-0.07778851 -0.18758735 0.12368093 -0.44307303 -0.16681199 0.06013594 -0.10336514 -0.1423526
0.13665895 -0.15810218 -0.020540383 0.1792104 -0.051422127 0.051308274 0.12767483 0.19622965
0.15403244 0.03572022 0.1560299 -0.24172468 -0.0275702 0.026371533 -0.16347289 0.403587
-0.16332011 0.19490936 -0.22209561 0.0095335 -0.15697286 0.046525203 0.037055068 -0.13859016
-0.11917669 -0.09513707 -0.010756805 0.31611058 0.0994347 0.018923314 0.105147414 0.1305412
-0.04511442 -0.35830185 -0.13668439 -0.29461 -0.0186959 0.22757448 -0.17856576 -0.043964922
-0.09462466 -0.16367945 0.055032667 -0.077890925 0.18493031 -0.07084049 0.06351422 0.17174512
0.010852578 -0.10544221 -0.23001634 0.017627139 0.09399813 -0.096062556 0.04699677 -0.03543923
-0.028525028 0.10606159 0.27717608 0.016909579 -0.12308691 -0.16450214 -0.06750261 0.1664688
0.124749586 -0.21354301 0.38613585 -0.045674864 0.23430109 -0.079988755 -0.028992547 0.05984911
0.35658655 0.018295603 0.27306488 -0.12590995 0.054810703 0.10448614 0.08768624 -0.33153468
-0.25726256 -0.004034371 0.28850374 -0.3323318 -0.064061806 0.019598685 -0.043370593 -0.013166237
0.13422744 0.12730858 -0.48558965 0.097264774 0.19239509 -0.20481601 0.16230798 0.16668718
0.069361195 0.17378034 -0.388111 -0.008940195 0.041565366 0.13098124 -0.124256134 -0.088230506
-0.118508525 0.04861721 0.11143777 0.13126218 0.21744385 0.06457317 0.22467598 0.204655
-0.058337014 -0.17687248 -0.20849906 0.11601004 0.04941664 -0.2655739 -0.06810691 0.02535459
0.013763013 0.1372622 -0.023488102 0.17037143 0.0144732 -0.13740377 0.19343422 0.41054973
0.07587838 0.19927602 0.11466436 -0.16299848 0.025343265 0.09802854 -0.14097399 0.021750992
-0.1222811 0.15884191 0.14149705 -0.26106852 0.10204067 -0.07584912 0.0663419 0.3159635
0.19850604 -0.2402707 -0.05895905 -0.23155296 0.13497226 -0.31719783 -0.0048100376 0.079530746
0.101916105 -0.138195 0.07153554 -0.061056677 0.20990461 -0.15689676 0.2335111 -0.37546465
-0.11278621 0.13912402 -0.09096643 -0.034685925 0.02821926 -0.0043067476 -0.028211087 -0.023929885
0.119698964 0.15325114 0.018300401 0.1483681 0.08871415 0.35920298 -0.13719359 0.39869294
0.056683034 0.11240133 -0.25442168 0.059442878 0.090879 0.17448466 -0.05366249 -0.053299982
-0.010119789 0.027562357 -0.07260904 0.010421611 0.027963422 -0.066694416 0.05182184 -0.033349093
0.0035196724 -0.009986707 0.005830189 -0.0056267004 0.029565778 0.030388068 0.025251502 0.04830782
0.0074093873 -0.009451867 -0.028396472 0.06493543 0.044409458 -0.014325109 0.04365924 0.00096629024
0.06869474 0.012496348 0.0059233163 0.01570754 0.07146888 -0.0476535 0.01808585 -0.03204942
-0.01993804 0.02331496 0.1899867 -0.15598771 -0.26066712 0.04462339 0.077401854 -0.12388741
-0.115960784 0.29483065 0.1832835 -0.07237031 -0.15135576 -0.17086937 -0.062425528 -0.12460939
-0.15933359 0.02944367 -0.1417076 -0.36723706 -0.055199433 -0.1496684 -0.12911555 0.49090707
0.25451717 0.0068806293 0.025482649 0.08003534 0.010283831 0.035174306 0.076488 0.3187901
00000000: 954f 9fbd e616 40be 6d4c fd3d 78da e2be
00000010: c3d0 2abe 1a51 763d 1ab1 d3bd e1c4 11be
00000020: 53f0 0b3e 8ae5 21be 4e44 a8bc ee82 373e
00000030: 02a0 52bd a028 523d 31bd 023e 6df0 483e
00000040: aeba 1d3e 5e4f 123d 4dc6 1f3e ad86 77be
00000050: e6da e1bc 1d09 d83c 7065 27be f5a2 ce3e
00000060: 633d 27be 5296 473e 086d 63be 6632 1c3c
00000070: 7ebd 20be 3691 3e3d 0ec7 173d 94ea 0dbe
00000080: e912 f4bd 39d7 c2bd 4f3d 30bc 3fd9 a13e
00000090: 6ca4 cb3d 1105 9b3c 8757 d73d 98ac 053e
000000a0: e6c9 38bd 5773 b7be fef6 0bbe 1fd7 96be
000000b0: 2528 99bc 4909 693e f1d9 36be 9014 34bd
000000c0: 93ca c1bd 969b 27be ef69 613d 4785 9fbd
000000d0: 5f5e 3d3e d214 91bd be13 823d f4dd 2f3e
000000e0: 03cf 313c 16f2 d7bd 6789 6bbe ca66 903c
000000f0: 1782 c03d 72bc c4bd af7f 403d ba28 11bd
00000100: 52ad e9bc d236 d93d 06ea 8d3e f585 8a3c
00000110: fd14 fcbd 4073 28be cf3e 8abd cc76 2a3e
00000120: b67c ff3d 05ab 5abe 99b3 c53e 9115 3bbd
00000130: a0ec 6f3e 25d1 a3bd c781 edbc 5724 753d
00000140: 8392 b63e a9e0 953c 29cf 8b3e 8aee 00be
00000150: 3081 603d d4fc d53d d894 b33d eabe a9be
00000160: ebb7 83be c232 84bb c3b6 933e 6527 aabe
00000170: d632 83bd 6c8d a03c 5da5 31bd 33b7 57bc
00000180: eb72 093e 2e5d 023e 359f f8be c132 c73d
00000190: 3803 453e 4abb 51be 1034 263e 0bb0 2a3e
000001a0: 3e0d 8e3d 79f3 313e 7cb6 c6be e579 12bc
000001b0: 7240 2a3d f21f 063e 007a febd 32b2 b4bd
000001c0: 99b4 f2bd d722 473d 7c39 e43d 9869 063e
000001d0: 9aa9 5e3e f03e 843d 7611 663e 1591 513e
000001e0: cbf2 6ebd 0f1e 35be c780 55be ac96 ed3d
000001f0: 1a69 4a3d 4df9 87be a37b 8bbd 6eb4 cf3c
00000200: 437e 613c 768e 0c3e 1f6a c0bc d975 2e3e
00000210: 0021 6d3c 93b3 0cbe 9f13 463e 9333 d23e
00000220: 2066 9b3d 030f 4c3e 26d5 ea3d 13e9 26be
00000230: ae9c cf3c 30c3 c83d 7c5b 10be 232f b23c
00000240: 836e fabd 74a7 223e 9ae4 103e c6aa 85be
00000250: b3fa d03d c956 9bbd 43de 873d f8c5 a13e
00000260: 2b45 4b3e 8609 76be 0b7f 71bd 381c 6dbe
00000270: 2b36 0a3e c167 a2be 859d 9dbb 04e1 a23d
00000280: 64b9 d03d fd82 0dbe 3a81 923d 9116 7abd
00000290: 3cf1 563e 8ba9 20be 891d 6f3e e73c c0be
000002a0: 75fc e6bd 8776 0e3e 9c4c babd d412 0ebd
000002b0: 142c e73c 9e1f 8dbb f01a e7bc 9b08 c4bc
000002c0: bb24 f53d deed 1c3e b9ea 953c cfed 173e
000002d0: c4af b53d 74e9 b73e 7a7c 0cbe 7b21 cc3e
000002e0: 782c 683d ab32 e63d 8f43 82be 607a 733d
000002f0: c51e ba3d 1bac 323e 33cd 5bbd 1551 5abd
00000300: 79cd 25bc 74ca e13c 0cb4 94bd 68bf 2a3c
00000310: 8c13 e53c 1597 88bd 2343 543d 0f99 08bd
00000320: 4eaa 663b 499f 23bc 2c0b bf3b 2f60 b8bb
00000330: ee33 f23c 66f0 f83c 3ddc ce3c 6cde 453d
00000340: 72ca f23b 01dc 1abc b89f e8bc defc 843d
00000350: b1e6 353d ddb3 6abc 08d4 323d a44e 7d3a
00000360: d4af 8c3d 7bbd 4c3c 6118 c23b 19ad 803c
00000370: 475e 923d 5130 43bd c728 943c 4146 03bd
00000380: 1a55 a3bc 04ff be3c e08b 423e 3ebb 1fbe
00000390: 2976 85be 04c7 363d dd84 9e3d afb8 fdbd
000003a0: d97c edbd 0bf4 963e abae 3b3e e336 94bd
000003b0: 01fd 1abe 61f8 2ebe e9b1 7fbd 3533 ffbd
000003c0: 5828 23be da33 f13c cc1b 11be 7f06 bcbe
000003d0: cd18 62bd ac42 19be de36 04be 2c58 fb3e
000003e0: 1350 823e e776 e13b fdc0 d03c 91e9 a33d
000003f0: 837d 283c ef12 103d bea5 9c3d 7538 a33e

context_transformer_0/ffn_layer_3/intermediate_dense/einsum/Einsum;context_transformer_0/ffn_layer_3/intermediate_dense/Relu;context_transformer_0/ffn_layer_3/intermediate_dense/add f4 [32]
-0.24233842 -0.11547172 -0.14108153 -0.24388711 -0.07611183 -0.22009583 -0.14250816 -0.17317213
-0.078168884 -0.13020979 0.012054577 -0.20112775 -0.14141025 -0.14488071 -0.063428104 -0.09808561
-0.091980875 -0.23434395 -0.068986975 -0.15278937 -0.417952 -0.13000973 -0.13582574 -0.31738943
-0.07358802 -0.2237776 -0.18929176 -0.049929146 -0.0880247 -0.12182519 0.034909897 -0.29986584
00000000: 9027 78be 707c ecbd ad77 10be 8bbd 79be
00000010: 85e0 9bbd cd60 61be a9ed 11be 0954 31be
00000020: 0217 a0bd b755 05be 8f80 453c 6ff4 4dbe
00000030: d9cd 10be 9c5b 14be 98e6 81bd 1ce1 c8bd
00000040: 7860 bcbd dcf7 6fbe 0b49 8dbd d174 1cbe
00000050: cefd d5be 4521 05be e715 0bbe de80 a2be
00000060: 51b5 96bd f525 65be b3d5 41be 8182 4cbd
00000070: 4b46 b4bd 7c7f f9bd aefd 0e3d 0488 99be
